…
":"2024-06-15T00:13:49.637762Z","shell.execute_reply.started":"2024-06-15T00:13:49.610354Z","shell.execute_reply":"2024-06-15T00:13:49.636979Z"},"trusted":true},"execution_count":22,"outputs":[{"name":"stdout","text":"Model: \"model\"\n_________________________________________________________________\nLayer (type)                 Output Shape              Param #   \n=================================================================\ninput_2 (InputLayer)         [(None, 240, 240, 3)]     0         \n_________________________________________________________________\nsequential (Sequential)      (None, 240, 240, 3)       0         \n_________________________________________________________________\ntf.math.truediv (TFOpLambda) (None, 240, 240, 3)       0         \n_________________________________________________________________\ntf.math.subtract (TFOpLambda (None, 240, 240, 3)       0         \n_________________________________________________________________\ninception_v3 (Functional)    (None, 6, 6, 2048)        21802784  \n_________________________________________________________________\nglobal_average_pooling2d (Gl (None, 2048)              0         \n_________________________________________________________________\ndropout (Dropout)            (None, 2048)              0         \n_________________________________________________________________\ndense (Dense)                (None, 38)                77862     \n=================================================================\nTotal params: 21,880,646\nTrainable params: 77,862\nNon-trainable params: 21,802,784\n_________________________________________________________________\n","output_type":"stream"}]},{"cell_type":"code","source":"len(model.trainable_variables)","metadata":{"execution":{"iopub.status.busy":"2024-06-15T00:13:49.641059Z","iopub.e
…
